mlp.pth (torch_old, 83643 bytes, 4 tensors)

fc1.weight f4 [20, 1024]
00000000: e6ad a43c 74b6 c2bc 6065 aa3b c0f4 ca3a
00000010: 6066 31bb cc15 edbc 409b b23b a0d2 85bb
00000020: ec2c 23bc 3801 e43b 36a5 e03c e0ef ca3b
00000030: ec07 0c3c d077 80be 2a3c 95be 5e50 96be
00000040: 9847 06be 0509 adbc 48c4 a4ba 2095 3cbc
00000050: b0f5 1a3b 702a 85bc 9252 b43c 2ea7 92bc
00000060: 7a91 c73c 3247 95bc 80ab 74bb 2c91 42bc
00000070: e032 bf3c d866 01bc 72fe 8dbc 5cc6 0d3c
00000080: 3017 29bc 6082 a5ba f03b a53b 8c94 5e3c
00000090: d678 31bd f060 0bbe 11ad c6be 33cd c5be
000000a0: 49fa bebe 65ec aebe db36 a2be 727c ddbe
000000b0: ce36 24bf 2d13 42bf 69c6 3cbf 4bde 10bf
000000c0: 7c47 043e 5042 e8be dd17 30bf 699f 41bf
000000d0: b889 64bf 75a3 52bf 1991 3cbf 04e9 3cbf
000000e0: 56c8 d8be 2c92 b5be c508 b3be 2bd6 20be
000000f0: 00f8 163b 64bb bebc 30b3 543b 5a8f b0bc
00000100: 7ce8 303c b804 f2bb 88d0 c8bd da94 f9be
00000110: 04e6 0dbf 09c4 1bbf 5653 e6be d18d 03bf
00000120: 2afa 31bf cfda 58bf 8a7a 4dbf 8943 95bf
00000130: 7056 b7bf e798 c4bf ffe5 9cbf 2766 49bf
00000140: 5e60 82bf 7399 cbbf 66b0 81bf 63a2 29bf
00000150: 307b 29bf 28a2 11bf 6472 12be a5a1 b9be
00000160: e719 84bf 4cbd 33bf 105d 5dbf bbbd 51bf
00000170: 85d3 15bf 6b23 05bf e853 23bc fc89 8f3c
00000180: 0c32 fc3c f292 87bc f2bc 3dbc 6245 03bf
00000190: 42a9 16bf d93c 36bf a459 09bf 8121 75bf
000001a0: b048 93bf 87c5 95bf 0602 80bf eb77 99bf
000001b0: c51a c9bf 9386 dfbf eae0 c9bf 5f54 a6bf
000001c0: b10f a1bf 3083 8dbf bbe0 8cbf 57e3 81bf
000001d0: a140 31bf 0a0d 82be 875f eabd b3dd 31be
000001e0: fb2a 753d cba0 063e cb3b ccbd 7ea2 7ebe
000001f0: fe22 80be 8dc3 a0bd f31f d2be 9487 f5bc
00000200: d4b6 623c ab3c b0bb fd24 fc3d 5ac9 03bf
00000210: ff02 25bf 3c11 43bf f13c 3abf 6c0a 1bbf
00000220: 556c 16bf 9a9d 49bf 99e8 05bf 7722 e6be
00000230: ad6d e3be a17e d9be 4599 aabe 562b f2be
00000240: 2958 c9be 2944 b3be b824 edbe 1b14 cbbe
00000250: cba3 57be 0fdf 5ebc 9d43 a2bd 49dc 37be
00000260: fdec 843b 967f 953d 87f9 eb3d 2f48 923e
00000270: 85ca c63e 8ddd c83e 8a39 48be c74d d2be
00000280: 84a8 353c e9d0 27bc 6c96 4fbe 2e4e d5be
00000290: aff9 17bf 2ca8 24bf 2b09 e9be 0fab 77be
000002a0: 369f d6bd 7b82 65be ed94 1fbe 45f1 15bd
000002b0: d34e 023e 4eed 913e 1d89 333e 1d5c 9fbc
000002c0: bc9a 05be d0a7 19be d997 2abe e7e6 d6bd
000002d0: cf7e f13c 9004 82bb 3605 bebd fb5c 08be
000002e0: c16c 253d 8c76 cfbb 7ad2 cc3d 535d 963e
000002f0: b42a 0e3f 2f44 1b3f cf26 0a3e e1ef c2be
00000300: f882 7cbc be66 69be 5938 10bf 9d20 0fbf
00000310: 621e 34bf 54d2 09bf c973 22be 284f 4b3d
00000320: 08e3 433d 22f2 813d c1b7 d23d bf60 923d
00000330: f66b 8d3e 8452 c33e a675 2b3e 5aa7 09be
00000340: f419 80be 6ed5 93be a2fc 98be 8e05 0ebe
00000350: b2a8 a0bd e99d a0bd 660d 90bd 07c3 913d
00000360: 8d63 8bbc cbe8 18bd db19 0e3c b8f0 683d
00000370: 23ba 6e3e a4b1 1c3f b300 ec3d 7f7c 83be
00000380: bcee a13b d4cd 01bf 5730 85be 3446 03bf
00000390: a5fe ecbe fc81 29be f7ec 013e 5ccb 523d
000003a0: 1836 21bc aa86 8b3c 1a77 79bc 4abf d03c
000003b0: 7ab6 153e 3413 3b3e 4233 6dba ed36 97be
000003c0: 06d7 76be 6051 9dbd 844c 82bd 402a 0f3d
000003d0: 52e1 063d 8157 813d 6db3 533e d837 043e
000003e0: c552 eabd f7ab 24be a462 f0b9 5267 fb3d
000003f0: 0ab9 953e 6be0 143f de04 3f3f a6e4 2f3e
0.020102452 -0.023768641 0.005200073 0.0015484318 -0.0027069077 -0.028941058 0.005450636 -0.0040839463
-0.009959441 0.006958153 0.027422529 0.006193146 0.008546811 -0.2509141 -0.29147464 -0.2935819
-0.13113248 -0.021122465 -0.0012570703 -0.011510164 0.0023644976 -0.016255587 0.022012029 -0.017901983
0.02436136 -0.018222425 -0.0037333667 -0.011875432 0.023339689 -0.007898055 -0.017333243 0.00865325
-0.01032047 -0.0012627356 0.0050425455 0.013585221 -0.04332813 -0.13611197 -0.38803914 -0.38633117
-0.37300327 -0.3416473 -0.31682476 -0.43259007 -0.64146125 -0.7581051 -0.7374025 -0.5658919
0.12917894 -0.45363092 -0.6878641 -0.75633866 -0.8927264 -0.82280666 -0.736589 -0.73793054
-0.42340344 -0.35463083 -0.34967628 -0.15706699 0.0023036003 -0.023282714 0.0032455437 -0.02155273
0.010797616 -0.0073858164 -0.09805399 -0.48746377 -0.554291 -0.60846 -0.44985455 -0.5138827
-0.69522345 -0.84708875 -0.80265105 -1.1661235 -1.4323254 -1.5359162 -1.2257689 -0.786715
-1.0185659 -1.5906204 -1.0131958 -0.6626341 -0.66203594 -0.56888056 -0.14301449 -0.36256137
-1.0320405 -0.7021072 -0.8647013 -0.8193013 -0.5852588 -0.5200717 -0.009968735 0.01752185
0.030785583 -0.016549561 -0.011580693 -0.51277745 -0.58852017 -0.71186596 -0.53652406 -0.9575425
-1.1506557 -1.1700906 -1.0000618 -1.1989721 -1.5711294 -1.7462944 -1.5771763 -1.2994498
-1.2582914 -1.105566 -1.1006082 -1.0147504 -0.6923924 -0.25400573 -0.11444002 -0.17369728
0.059855442 0.13147275 -0.09972342 -0.24866673 -0.25026697 -0.07849798 -0.4104 -0.029971875
0.013837535 -0.005378326 0.123117425 -0.51479113 -0.64457697 -0.7619817 -0.7274924 -0.6056278
-0.5875905 -0.78756106 -0.5230804 -0.4494817 -0.44419613 -0.42479423 -0.3332006 -0.47298688
-0.39325073 -0.3501294 -0.46317077 -0.39663777 -0.21058576 -0.013602986 -0.079230525 -0.17955126
0.0040565715 0.07299726 0.11522203 0.28570697 0.38826385 0.3923153 -0.195532 -0.41074964
0.011087541 -0.010242679 -0.20272225 -0.4166121 -0.5936536 -0.6431911 -0.45514807 -0.24186347
-0.10479586 -0.22413056 -0.15584154 -0.036607046 0.12725382 0.28501362 0.17532773 -0.019453103
-0.13047308 -0.15005422 -0.16659488 -0.1049326 0.029479412 -0.003967829 -0.09278338 -0.13316719
0.04038692 -0.0063312706 0.10001083 0.29368076 0.5553391 0.60650915 0.13491367 -0.38073638
-0.015412085 -0.227931 -0.5633598 -0.5590914 -0.7035886 -0.5383656 -0.15864481 0.049636036
0.047823936 0.06345011 0.102889545 0.07147359 0.2762143 0.38148892 0.16744098 -0.13442746
-0.250198 -0.2887377 -0.29880244 -0.13869306 -0.07844676 -0.07842619 -0.070338055 0.07117277
-0.017015243 -0.037331384 0.008673157 0.056870192 0.23313193 0.6120856 0.11523571 -0.2568092
0.0049417894 -0.50704694 -0.26013443 -0.51278996 -0.46288028 -0.16553491 0.12688051 0.05146347
-0.009839557 0.017031986 -0.01522615 0.025481839 0.1462039 0.18269044 -0.00090484705 -0.29534093
-0.24105462 -0.07681537 -0.063622504 0.034952402 0.032929726 0.06315518 0.20673914 0.12911928
-0.11441568 -0.16081224 -0.0004584986 0.12275566 0.29242736 0.58154935 0.746168 0.17177066

fc1.bias f4 [20]
00000000: e138 303e 77cf d23d b0fc 0abf 456c 4e3f
00000010: 3d15 83bf b107 0abf 625e d63e 77fd 213f
00000020: 2866 eebe 2e27 a53d 4d41 463f 948d 6a3f
00000030: bb92 a4be a2ab a13f 5b13 88bf 5875 05bf
00000040: 4e6d f5be f9ce ba3b 9f27 743e a30f 1d3e
0.17209198 0.10293477 -0.5429182 0.80633956 -1.0240856 -0.53917986 0.41868883 0.6327738
-0.46562314 0.080641136 0.7744339 0.9162228 -0.32143196 1.2630503 -1.0630907 -0.5213218
-0.47934955 0.0057009426 0.23843239 0.15337996

fc3.weight f4 [10, 20]
00000000: eddb e2bf 365a a03f 5e45 dabf a320 bd3f
00000010: ecf4 cabe 2f6a bdbf d044 c7bf cc1c 5b3f
00000020: 38ca 413f 9c09 c0bf d116 723f 6680 8e3f
00000030: a61d 00c0 1805 abbf a544 383f 8731 003f
00000040: acef b8bf e6b4 4b3f 34fc d0bf f91c 7b3f
00000050: cb21 80bf 4247 bcbf aca7 a1bf dfc8 993f
00000060: 7bed 4bbf 0963 f03e b124 bd3f 77d6 50bf
00000070: a2ea ffbf b376 9e3f 21c3 a5bf c36a 8e3f
00000080: b45d a5bf aad4 953f 2645 97bf 2e15 943f
00000090: d775 ba3f 242c 56bf 54f8 463f 73f2 aabf
000000a0: e9dc 24bf 71e1 ad3d bb2c cebf b024 e1be
000000b0: 3bf3 ae3f c436 a63f 1309 13c0 3eab bbbf
000000c0: 1171 4e3f 58c4 bcbf 6cfd f6bf 9591 243f
000000d0: 50b7 c13f a305 b93f 75a7 993f eb4d a8bf
000000e0: 7ac4 8abe 73ae 2d3f 3653 24bf 923c 90bf
000000f0: 9cc3 8bbf 4121 f6bf 3935 c83f aed3 853f
00000100: 0354 98bf 9f9f ba3e e0d5 9f3f fdfa 89bf
00000110: 2c10 813f 9ee0 a33e fe5f a9bf f45e ab3e
00000120: 886d d93f 9d04 9dbf 5136 723f 7f32 c8be
00000130: 6a18 61bf 6526 dcbf 1cd2 3c3f 8b1d 7f3f
00000140: 8fa4 443f d6bf 823f b3ad 65be 07e9 bcbf
00000150: e145 8b3f 6aa1 143e 925f 7e3f 4b6a e43f
00000160: f1dc b7bf 40ee 983f 5d11 6c3f d67b a5bf
00000170: 6100 c0bd 1b2c 7abe 880c f7bf 54e8 eebf
00000180: bb56 68bf 246d babf ad47 bcbf dbbe a83f
00000190: 90ab a13f ad46 07c0 3de0 523f 95a4 0cbf
000001a0: 3b70 efbf 7722 0fc0 4749 aa3f c432 543f
000001b0: 9c3f 383f 3726 5a3f 055a 343f c0ef 593f
000001c0: 6497 1bbf 2c60 063f 5e98 523f 87ec 6abf
000001d0: 4049 0d3f bc8e f63f 8f2c 6cbf bbab 373f
000001e0: 2c97 c5bf 22c2 5abe 9b0e eabf 6e3c abbf
000001f0: 2c5d 463f 3d06 75bf 3cdd eebf 7281 8a3f
00000200: 0661 d1bf 3ff7 eabe 3eb1 b53f 2d37 a23f
00000210: ae35 7f3f b92e cabf 9d37 80bf e721 b9bf
00000220: 40a2 e03f a277 8b3f 5f77 913f 2a2a 83bf
00000230: 0d1e 653f 32be ca3f 46c3 963f 5941 cb3f
00000240: 42f6 a7bf a8b0 e2be cec9 68bf e9c9 ca3f
00000250: a8d9 833f c829 4abf 567d c3bf b36b 06c0
00000260: dd36 5fbf 63ec 993f 4a54 ffbf d4ac 953e
00000270: a36b 5dbf d38e a3bf 473b c03f fc57 6ebf
00000280: d4d4 773f 0f9e a7bf 78a2 0d3f bd49 a7bf
00000290: e502 a63f 2198 d63f ea26 21c0 1cef 19bf
000002a0: 6658 823f 3837 4f3f cbb6 d8be 9db1 c2bf
000002b0: efad 97bf dab8 12c0 d707 983f d305 9d3f
000002c0: 9ad8 7f3f 3e76 bc3e a2c1 56bf 4959 83bf
000002d0: 1a25 803f e0a0 913f 2335 9b3f 9d89 67bf
000002e0: cb75 253f 8d6f b5bf 413f d63f 200c 0fc0
000002f0: 9eb8 a9bf 721b 8fbf 0fa6 d83f 6417 89bf
00000300: 9667 81bf 7e7c 62bf d1bf 2dbf 31da ee3f
00000310: a382 e8bf 59d7 b7bf 6959 67bd 638d 66be
-1.7723366 1.252753 -1.7052419 1.4775585 -0.39639986 -1.479803 -1.5567875 0.85590816
0.75699186 -1.5002933 0.94566065 1.1132934 -2.0018096 -1.336093 0.71979743 0.5007557
-1.4448142 0.79572904 -1.6326966 0.98091084 -1.0010313 -1.4709246 -1.2629294 1.2014426
-0.7965924 0.46950558 1.4776822 -0.8157725 -1.9993479 1.2379974 -1.2950174 1.1126331
-1.2919221 1.1705525 -1.1817977 1.1568964 1.4567212 -0.83661103 0.7772267 -1.335524
-0.6439958 0.08490265 -1.6107401 -0.43973303 1.3667978 1.2985463 -2.2974288 -1.4661634
0.80641276 -1.4747419 -1.9296088 0.6428464 1.5134068 1.4454845 1.2004229 -1.3148779
-0.27103025 0.67844313 -0.6418947 -1.1268485 -1.091907 -1.9228898 1.5641242 1.0455225
-1.1900638 0.36449906 1.2487144 -1.077972 1.008306 0.32007307 -1.323242 0.3347088
1.6986551 -1.2267033 0.9461413 -0.39101025 -0.8792788 -1.7199217 0.737581 0.99654454
0.76813596 1.0214794 -0.22429542 -1.4758614 1.08807 0.145147 0.9936458 1.7844938
-1.4364301 1.1947708 0.92213994 -1.2928417 -0.09375072 -0.24430887 -1.9300699 -1.8664651
-0.9075734 -1.4564557 -1.4709374 1.3183244 1.2630482 -2.1136887 0.8237341 -0.5493863
-1.8706125 -2.2364786 1.3303612 0.8288996 0.7197206 0.8521456 0.7044986 0.85131454
-0.6077788 0.52490497 0.82263744 -0.9176716 0.55189896 1.9262309 -0.9225549 0.71746415
-1.5436759 -0.21363118 -1.8285707 -1.3377817 0.7748592 -0.95712644 -1.8661265 1.0820754
-1.6357734 -0.4589176 1.4194715 1.2673088 0.99691284 -1.5795509 -1.0016972 -1.4463471
1.7549515 1.0895884 1.1364554 -1.0247242 0.8949898 1.5839293 1.1778343 1.5879318
-1.3122027 -0.44275403 -0.9093293 1.5842868 1.0300798 -0.78970003 -1.5272624 -2.1003234
-0.8719309 1.2025265 -1.9947598 0.2923342 -0.86492366 -1.2777961 1.501809 -0.93103004
0.96809125 -1.3095111 0.5532603 -1.3069378 1.2969633 1.6765176 -2.5180001 -0.60130477
1.0183227 0.8094363 -0.4232696 -1.5210453 -1.1849955 -2.2925324 1.1877393 1.2267402
0.9993988 0.36808962 -0.8388921 -1.0261623 1.0011322 1.137722 1.2125591 -0.90444356
0.6463286 -1.4174668 1.6738054 -2.235115 -1.3259466 -1.1180251 1.6925677 -1.0710263
-1.0109737 -0.8847121 -0.67870814 1.8660337 -1.8164867 -1.4362594 -0.056481753 -0.22514872

fc3.bias f4 [10]
00000000: d504 08bf 9474 8d3e 3b0b 0a3f 9fce 14bf
00000010: e3da 47be 16e4 18bf 5c4a c73e bf63 343e
00000020: 6085 b6be 3223 b83e
-0.53132373 0.27628005 0.53923386 -0.5812778 -0.19517092 -0.5972303 0.3892392 0.17616175
-0.35648632 0.35964352
