net.pth (torch_old, 248405 bytes, 10 tensors)

conv1.weight f4 [6, 1, 5, 5]
000000 13 d7 14 3f 4f bf da 3e ea 85 0f bd d3 d6 2e bf
       0.5814068 0.42724082 -0.03503982 -0.68296546
000010 35 fc 23 bf 6d 09 1c 3e d2 85 b4 bd f5 28 50 bf
       -0.6405671 0.1523797 -0.08814587 -0.81312495
000020 b8 35 9f bf 0f 50 5f bf 21 ca 46 be e9 b7 57 bf
       -1.2438269 -0.87231535 -0.19413044 -0.84265
000030 93 52 d0 bf cc 97 81 bf f3 ac 65 be ce 4f f0 be
       -1.62752 -1.012445 -0.22429256 -0.46935886
000040 51 27 98 bf c3 15 9b bf b3 da a6 be 94 d5 c2 3e
       -1.1886998 -1.2116016 -0.3258873 0.38053572
000050 59 61 45 bf f5 81 99 bf 4d 28 29 bf 2d 8c 3a 3e
       -0.77101666 -1.1992785 -0.6607712 0.18217535
000060 49 82 27 3f 5c 65 3e bf d3 2c 64 bf ad 75 3a bf
       0.65433174 -0.7437341 -0.89130896 -0.7283581
000070 d6 67 35 bf 1a bd 35 bf d5 d8 29 bf 36 45 3e be
       -0.70861566 -0.7099167 -0.66346484 -0.1858109
000080 b4 76 3c 3d 6c 41 f8 bd 15 29 2e be 84 dc 9f be
       0.04601164 -0.12121853 -0.17007859 -0.31222928
000090 96 d3 cf 3e 2f 08 54 3f 73 63 5e 3f ad ed f4 3e
       0.40591115 0.8282499 0.868705 0.47837582
0000a0 de 9d 67 3e 2a a9 03 3f b3 72 84 3f d4 7b 7f 3f
       0.22618815 0.5143 1.0347503 0.9979832
0000b0 c6 0b f7 3e 7c 34 44 be b3 fb 55 3e e2 1f d4 3e
       0.4825117 -0.19160646 0.20896797 0.41430575
0000c0 35 a1 19 3f f5 2d af 3e 30 7b 71 3f 1d 1a 5f 3f
       0.6001161 0.3421475 0.94328594 0.8714922
0000d0 e6 14 17 3f 0c 96 25 3f c0 cd e9 3e 88 e2 18 3f
       0.59016263 0.6468208 0.45664787 0.5972066
0000e0 d6 e5 99 3e 03 e1 ae be c0 fb 07 bf cb a3 9a be
       0.30058163 -0.34156045 -0.53118515 -0.3020309
0000f0 d3 39 d0 3e ea 21 25 bf 7a 0c 8e bf 82 6b 82 bf
       0.40669116 -0.64504874 -1.1097558 -1.0189059
000100 7b e6 0a bf 8d 05 ab 3e 15 44 b1 be 05 79 ad bf
       -0.54257935 0.33402672 -0.34622255 -1.3552557
000110 fb 29 82 bf 7e 04 44 be e0 03 46 3f 3c a2 1a be
       -1.0169061 -0.19142339 0.7734966 -0.1510095
000120 35 12 29 bf 9d 49 dd bd 4d b8 d1 3e 2e b9 f0 3d
       -0.66043407 -0.10805056 0.40960923 0.1175407
000130 36 a1 b3 bd 85 ee b1 be f5 2a fe be ca 2b 22 be
       -0.08770983 -0.34752288 -0.4964215 -0.15837017
000140 4d 28 a0 be a9 b3 51 bf 95 70 a3 bf 46 d3 59 bf
       -0.31280747 -0.81914765 -1.2768732 -0.85088
000150 46 d7 d9 bd ac 53 bb be 10 ae 97 bf b7 c3 83 bf
       -0.10636763 -0.36587274 -1.1849995 -1.0294102
000160 98 7a 86 be 64 69 2b 3e 50 73 cb 3e c2 49 38 be
       -0.26265407 0.16739422 0.39736414 -0.17996886
000170 4d df 8b 3d 97 01 7e 3e 57 fb c6 3e 11 e3 85 3f
       0.068297006 0.24805294 0.38863632 1.045992
000180 6e 87 7f 3f 61 fa 2d 3f de 18 78 3f f0 1c 4f 3f
       0.99816024 0.6796017 0.96912944 0.8090353
000190 4d 31 55 bf fc f9 26 bf ed f5 09 bf da 20 c2 be
       -0.8327835 -0.65225196 -0.5389088 -0.3791569
0001a0 f1 94 12 bf 63 f2 51 be 5e 39 c4 3d 1a 9f ab 3e
       -0.57258517 -0.2050262 0.095812544 0.33519822
0001b0 39 ba 90 3e 38 3d ec 3d 09 a4 f2 3d e9 e5 3f 3f
       0.28267077 0.11535114 0.118476935 0.7496019
0001c0 ce b2 72 3f a9 85 71 3f 9d da 53 3f 1d c1 c8 3e
       0.94804084 0.94344574 0.8275545 0.39209834
0001d0 38 6d 6f 3f 96 e6 93 3f 1e b0 8d 3f 53 25 8f 3f
       0.9352603 1.1554744 1.1069372 1.1183265
0001e0 95 c2 a8 3c 94 b4 a3 3e 35 4f 06 3f c6 37 30 3f
       0.020600596 0.31973708 0.5246461 0.68835104
0001f0 45 dc f2 3e 9c db e4 bc a9 4d 10 3e ab b2 28 3f
       0.47433677 -0.02793675 0.14092125 0.65897626
000200 9a 84 38 3f 05 73 4b 3f 21 5e 75 bf 0d b1 5f bf
       0.72077334 0.7947238 -0.95846754 -0.87379533
000210 9c e0 ac be c7 d0 18 be d5 f2 00 be 5c 25 86 bf
       -0.33765113 -0.14923392 -0.12592633 -1.0480151
000220 c5 03 b0 bf 53 0e a0 bf 0f dd 89 bf c0 e6 8e bf
       -1.375115 -1.2504371 -1.0770587 -1.1164169
000230 44 18 94 bc f8 ee e9 be 27 d1 59 bf 70 df 83 bf
       -0.018077977 -0.4569013 -0.85084766 -1.0302563
000240 de c4 81 bf 09 03 47 3f 2b f9 75 3e 64 e4 db bc
       -1.0138204 0.77739006 0.24020831 -0.026842304
000250 7a 98 49 be 76 97 ab bd
       -0.19687071 -0.08378498

conv1.bias f4 [6]
000000 a5 a3 13 3f 67 da ed be 72 d0 ad 3e 7e 5f 86 bc
       0.57671577 -0.4645569 0.33948094 -0.016402956
000010 60 67 f2 be 68 45 b8 3e
       -0.47344494 0.35990453

conv2.weight f4 [16, 6, 5, 5]
000000 fd 64 c3 3e d2 cd b7 3d 8e 50 b0 be 91 2b 30 be
       0.38162985 0.08974804 -0.34436458 -0.1720412
000010 72 ca 74 3e 84 91 ce 3e 70 d4 99 be b8 d1 1f bf
       0.23905352 0.40345395 -0.3004489 -0.6242938
000020 b6 1a b8 3e c1 a4 ce 3e f2 35 92 3e 9a d1 70 bf
       0.3595788 0.40360072 0.28556782 -0.94069827
000030 9c 22 b3 be 6e 4e b1 3e 0e 08 87 3e c5 6d 93 bd
       -0.34987342 0.3463015 0.26373333 -0.07198671
000040 a5 87 46 bf 1c be e7 be c6 dd 81 bb 30 1a 09 bd
       -0.7755073 -0.4526223 -0.003963205 -0.03347224
000050 23 03 a7 bd ac b8 88 be 7f 59 82 be a3 e4 4a bd
       -0.08154895 -0.26703393 -0.25458905 -0.04953445
000060 79 fb 20 3e b7 d7 23 bd 7f 46 a8 3e 3f f7 6d 3e
       0.15720929 -0.040000644 0.32866284 0.23238848
000070 c9 56 e2 bd 9f 9a a6 bd ad 98 c6 3d 5c 90 79 3e
       -0.11051709 -0.081349604 0.09697089 0.24371475
000080 fd 86 cd bc 36 58 a4 be 17 bb 35 bd 80 69 0b 3e
       -0.025088781 -0.3209855 -0.044367876 0.13614464
000090 aa 24 d2 3d a4 d4 ce 3a 02 8f 95 bd 6c d6 06 3d
       0.10260899 0.0015779925 -0.07302667 0.032919332
0000a0 eb 4b 03 3e a9 db 98 3d b8 1d c5 bb 9a 51 a1 bd
       0.12821929 0.07463772 -0.0060155056 -0.078768924
0000b0 68 50 9d 3c 71 64 08 3e 73 dc d8 bc 9b c0 28 bd
       0.01920338 0.13319565 -0.026472306 -0.041199308
0000c0 9d 18 87 bd 2c 5b d6 3d b4 91 05 3e 6b 9f 67 be
       -0.065964915 0.104666084 0.13043863 -0.22619407
0000d0 9b 98 be be 04 f7 ac bd 44 1c 88 3e 24 b7 5c 3d
       -0.37225804 -0.08445552 0.26584065 0.053885594
0000e0 4c 7f 52 bf 7c bd 21 be 58 46 04 3f 98 a8 d7 3e
       -0.8222549 -0.15794939 0.51669836 0.42120814
0000f0 3a 5d 0d be ae be 23 bf a3 8b 1a 3e ca 8c e0 3e
       -0.13805094 -0.6396283 0.1509233 0.43857414
000100 c8 35 45 3e 75 e3 9c be 89 0b ec be ae 9b 04 3e
       0.19258797 -0.30642286 -0.4610255 0.12950012
000110 0e f7 67 3e 00 48 ff 3d 51 7a 71 be 28 f8 39 be
       0.22652838 0.12464905 -0.23581816 -0.1816107
000120 99 98 4f 3d e1 a2 82 3d 31 7e 9a bc 21 76 63 3e
       0.050682638 0.06378723 -0.018859 0.22213031
000130 ab 6f a5 bd 6c 3c d7 be 28 b2 ba be f3 96 79 bc
       -0.080779396 -0.42038286 -0.36464047 -0.015233743
000140 03 d3 3f 3e 62 5c a1 be fe 63 4a bf 8c b0 48 bd
       0.18732838 -0.31515795 -0.79058826 -0.048996493
000150 97 87 b7 3e 61 d8 5b 3a b6 4a 52 bf ba 37 28 bf
       0.35845634 0.000838643 -0.8214525 -0.6571003
000160 36 55 d2 3e dd 59 d2 3e 5d 54 2d be c4 11 f7 be
       0.41080636 0.41084185 -0.16926713 -0.48255742
000170 8b 4c ec be 7f ad 1c 3e c0 b1 65 3e cf 3e 60 be
       -0.46152148 0.15300559 0.22431087 -0.2189896
000180 81 8a 73 be 8e a3 00 bc d0 d4 4d 3e a6 87 06 3e
       -0.23783304 -0.0078514945 0.20100713 0.13137683
000190 5d 22 69 3b ae 1d 8a 3e 67 af 6d 3e de 2e 67 bc
       0.003557346 0.2697577 0.23211442 -0.014110295
0001a0 f3 6e db bd 75 80 43 3c 78 03 54 3e fc f0 d8 3d
       -0.10714521 0.011932482 0.20704448 0.10592839
0001b0 df cd 3a be 01 0a 9a bd c3 c0 fd 3d bf 9d 85 3e
       -0.18242596 -0.07521439 0.12390282 0.26096913
0001c0 d8 c1 8b b8 82 c9 74 bd 0e 9e 0a be 05 a7 25 3e
       -6.664143e-05 -0.059762485 -0.13536856 0.16176994
0001d0 77 95 63 3e 45 f5 c7 3d 85 dd 34 3d 0f ea 27 bd
       0.22224985 0.09763578 0.04415657 -0.0409947
0001e0 1f c0 18 3e 1e ac 66 3d 1c 1c aa 3c fd ff 9e bd
       0.14917038 0.056316487 0.020765357 -0.0776367
0001f0 26 ba 31 bd ab f1 dd 3d 41 11 a3 be 61 54 2f bf
       -0.043390416 0.1083711 -0.318491 -0.68488127
000200 74 49 af be 0d 79 58 3d 66 24 24 3d 59 a1 9d bf
       -0.34235728 0.052849818 0.040073775 -1.2314864
000210 8b e9 5c bf 20 cb 27 3e 71 6e c6 3e 53 d4 04 be
       -0.8629386 0.1638608 0.38756135 -0.1297162
000220 3c ff a8 bf 84 5c 29 bf b4 7e 88 3e b7 bf bb 3e
       -1.3202891 -0.6615679 0.26659167 0.36669704
000230 08 eb 62 be 3f 06 30 bf 4f da 76 be d4 d3 a7 3d
       -0.2215997 -0.6875953 -0.24106716 0.081947
000240 02 31 1d 3e 25 c5 69 be 47 86 5c be 42 a5 df 3d
       0.15350726 -0.22829111 -0.21535598 0.10920192
000250 4b f6 cf 3d 98 82 21 3e 75 3d 10 3e 4a 53 54 3e
       0.101543985 0.15772474 0.14085944 0.20734897
000260 b2 6f 46 3e fd 80 29 3e 76 f2 0b 3c c2 19 76 3d
       0.19378546 0.16553111 0.008541694 0.06008316
000270 1b 98 b7 3e 45 de 1d 3f 24 c2 9d 3e be 57 f1 be
       0.35858235 0.6166728 0.3081218 -0.47137254
000280 51 e7 37 3e 26 ee be 3e 9b e2 06 3c 03 95 14 bf
       0.17959334 0.37291068 0.008232738 -0.58039874
000290 be b9 31 be d7 e7 7d bd d6 08 e9 be 75 32 12 bf
       -0.17356011 -0.061988678 -0.45514554 -0.5710824
0002a0 8e 29 91 3d 59 a0 a1 3c 64 e9 d5 be 80 63 ed be
       0.07088004 0.01972978 -0.41779625 -0.46364975
0002b0 68 78 72 3d 3f ef e1 3c 87 f1 9b 3d ea 51 31 be
       0.05919686 0.027579902 0.07614427 -0.17316404
0002c0 8e 0f d8 be cd e5 7e be 4d 0f 54 3c 1f 05 51 3e
       -0.42199367 -0.2489235 0.012943101 0.2041211
0002d0 22 60 0f bf c7 a5 a8 be 1e ac b6 3d 84 17 af 3e
       -0.5600606 -0.32938978 0.089195475 0.34197628
0002e0 77 b6 a6 3e 22 0a 12 3d 04 66 a7 3e de f2 b0 3e
       0.32561085 0.035654195 0.3269502 0.34560293
0002f0 94 fc bb 3e 1a d4 b9 bd 44 9c 65 3d 77 43 a8 3e
       0.3671614 -0.09073658 0.05605723 0.32863972
000300 ec c4 2e 3d b3 46 89 be 01 a3 25 be 29 c3 b9 3d
       0.042668268 -0.26811752 -0.16175462 0.09070427
000310 fa f1 80 be b6 57 ba be 0f 8e 2f be ad b4 65 be
       -0.25184613 -0.36395043 -0.17144035 -0.22432204
000320 51 e3 bf 3d 4a 47 3d 3e 3d 7a d6 3d ca f5 e7 bd
       0.09369529 0.18484226 0.10472534 -0.113261774
000330 41 c5 1a bf 63 bc 9d 3e 11 0f de 3e 04 0e ce 3d
       -0.60457236 0.3080779 0.4337087 0.10061267
000340 d2 57 25 bf 63 92 5a bf a8 1c b5 3e d9 0b 37 3e
       -0.6458713 -0.8537962 0.35373425 0.17875613
000350 e5 02 46 bf c2 a3 ce be d7 bf af bc 00 a1 06 3d
       -0.77348167 -0.40359312 -0.021453781 0.032868385
000360 87 22 13 bf d6 32 2c be 06 75 a5 3e fa 9e 74 3e
       -0.5747456 -0.16816267 0.32315844 0.2388877
000370 48 e1 9e be 76 7c 79 3d 29 45 93 3e ec b9 9d 3e
       -0.3103125 0.06090971 0.28763703 0.3080591
000380 71 d3 23 3e 9e 4d d3 bd 63 11 c4 3b 24 58 91 3d
       0.15998627 -0.10317539 0.005983518 0.070968896
000390 e5 1c 79 3d 73 d4 6f 3c e2 6f 34 be cb d9 86 3e
       0.06081857 0.014638054 -0.17620805 0.26338038
0003a0 f9 01 d2 3e a4 43 13 3e 92 95 a7 be 15 35 93 3e
       0.4101713 0.14381272 -0.327313 0.28751436
0003b0 da 3b f9 3e f6 db 9b 3e 68 73 19 bf 22 1d 45 bf
       0.48678476 0.30441254 -0.5994172 -0.7699758
0003c0 49 8b 9e 3e 48 c8 14 bd 98 a4 57 bf a2 f0 19 bf
       0.3096564 -0.036323816 -0.84235525 -0.601328
0003d0 75 ca 68 3e f2 46 99 bd 42 1f 1c bf 20 d4 9c be
       0.22733481 -0.07484235 -0.60985196 -0.3063059
0003e0 85 3a ca 3d 4f c2 13 3e 34 73 19 be ad 52 b3 be
       0.09874443 0.14429592 -0.14985353 -0.35024014
0003f0 48 32 af be ca 80 62 bd 51 00 5e 3d 5b e0 a3 be
       -0.3421805 -0.055298604 0.05419952 -0.32007107

conv2.bias f4 [16]
000000 ef 4e 28 bc d4 e5 00 bd 32 2b 3d 3d 9d a7 23 bc
       -0.0102727255 -0.03146918 0.046183772 -0.009988693
000010 98 ee ad bd db b1 51 3c 35 29 9b bd 8f 2b 15 bd
       -0.08492774 0.012798752 -0.07576219 -0.036418494
000020 f4 70 cd bc bc e8 bd bb e2 1c 08 3a 3a 2e 53 3d
       -0.025078274 -0.0057955664 0.0005192292 0.051557757
000030 40 c9 05 3e 7b a5 67 3b 43 d5 0c 3d 05 e7 3b bd
       0.13065052 0.0035346437 0.03438307 -0.045874614

fc1.weight f4 [120, 400]
000000 78 6c c7 be 7b 18 3f 3e 62 41 80 3e a1 d0 aa 3e
       -0.38949943 0.18661682 0.25049883 0.33362296
000010 f1 12 2d bd 98 04 03 bc 82 64 50 3d 02 2a 94 3d
       -0.042254392 -0.007996701 0.0508771 0.07234575
000020 7e 08 28 3e 79 23 16 bc 16 38 70 3d 98 01 84 be
       0.1640949 -0.009163731 0.058647238 -0.25782466
000030 43 df 49 be e6 61 53 3e 61 e0 29 3d f9 4c 25 be
       -0.19714074 0.20642814 0.04147375 -0.16142644
000040 de 37 1b be f7 26 d4 be 41 44 83 3e b6 8f f4 bd
       -0.1515803 -0.41435978 0.2563801 -0.11941473
000050 be 05 a4 be c1 d3 a8 3e 9f 0d 87 bd 3f c2 ec bd
       -0.3203563 0.32974055 -0.06594395 -0.11560487
000060 c6 38 90 be 39 60 84 3e 87 70 5e 3e c9 48 ba bc
       -0.28168315 0.25854662 0.21722613 -0.022739785
000070 2d 93 47 be ec ce 97 bd 19 23 b4 3d 14 11 32 be
       -0.19489737 -0.07412514 0.08795757 -0.17389327
000080 82 26 4a 3d ec 40 8d bd ac 60 8f bd ad e3 31 be
       0.04935313 -0.068971485 -0.070008606 -0.17372008
000090 3d 62 a7 be 9c 0d 0c be c2 31 8d bb d2 c9 a8 3d
       -0.32692137 -0.13677067 -0.00430891 0.08241619
0000a0 20 70 ef bd 10 0a 50 be 25 7b da bd af fe 66 be
       -0.11691308 -0.20316339 -0.10668019 -0.22558092
0000b0 54 cb 46 3e 34 1b 98 3e 24 50 3c 3d 4a 58 6b be
       0.19413501 0.29708254 0.045974866 -0.22982898
0000c0 7b ba 0b bf da f4 3f bf ac 66 f3 bd 59 24 e5 bb
       -0.5458142 -0.7498299 -0.118848175 -0.0069928584
0000d0 66 2b 3e 3e 06 04 06 bd 2b c9 0d be 75 aa a9 be
       0.18571243 -0.03271868 -0.1384627 -0.3313786
0000e0 b6 37 9b 3c f8 7e 84 3e af d7 08 be 3f bc da be
       0.018947463 0.2587812 -0.13363527 -0.42721745
0000f0 74 fe 3d 3e a1 d5 5b 3d 67 de 59 3d 77 58 63 bd
       0.18554097 0.05367053 0.053190615 -0.05550429
000100 70 38 61 be b6 29 a9 3e f2 a9 7e 3d e9 f0 49 be
       -0.21994185 0.33039635 0.06217379 -0.19720806
000110 d5 17 47 be be 34 ac 3c 6f 7e e3 3d 08 05 3a 3d
       -0.19442685 0.021021243 0.111081 0.045414954
000120 b9 1b 90 3b 24 7d d0 3e cd 7b 08 3f b2 f4 86 be
       0.004397836 0.40720475 0.53313905 -0.26358563
000130 5f 04 70 be 13 94 c7 3d 60 fe d5 bc 44 fb 69 3d
       -0.23439167 0.0974504 -0.026122272 0.05712439
000140 4c 24 8a be 76 73 1f bd 08 9b 9c bc 79 6f ca 3c
       -0.26980817 -0.03892847 -0.019116893 0.024711357
000150 60 dd 2e 3e 54 75 b6 3e 0d 7f 25 3e 3d 05 6d be
       0.17076635 0.3563639 0.16161747 -0.2314653
000160 27 d7 c7 be 94 96 da 3b 45 81 1f 3e 41 b6 78 3e
       -0.39031336 0.0066707823 0.15576656 0.24288274
000170 9c 73 d5 be d8 ed 66 be fc e2 98 3c 46 78 65 3d
       -0.41689765 -0.22551668 0.018662922 0.056022905
000180 f4 4f dc 3d 09 4c 2f 3e 54 e6 c8 3e e3 e7 d8 3e
       0.10757437 0.17118849 0.39238226 0.42364416
000190 e6 9a e1 3d e4 21 64 3e a6 86 26 3d e9 b9 a2 3d
       0.11015873 0.22278553 0.040655755 0.07945616
0001a0 b1 d3 79 3e 14 a6 c3 3d 24 18 62 3d 6c 5e 43 3e
       0.2439716 0.09553161 0.055198804 0.19078988
0001b0 cb 64 df 3d e1 d1 48 3e 5d ae 53 bd 45 7d 32 be
       0.109078966 0.19611312 -0.051679958 -0.17430599
0001c0 d0 57 3a 3e 61 aa 38 3e 2e 79 12 3e 6b 2b 94 be
       0.1819756 0.18033744 0.14304039 -0.28939375
0001d0 0f 26 df 3b 3a a8 d2 3d 2b 9a 30 3e e7 90 99 be
       0.006809957 0.10285993 0.1724631 -0.29993364
0001e0 ce e5 0e 3e 28 f9 1e 3e ee 0c d7 3d 7c 9d 1d 3e
       0.13954851 0.15524733 0.10500513 0.15392107
0001f0 b5 51 b4 be e1 fb be 3d 45 e6 14 bd 1b 7a 3f be
       -0.35218588 0.09325386 -0.036352415 -0.18698923
000200 0f 57 e3 be ae 3e cc be 1b 2c 17 bd 76 32 99 3c
       -0.44402358 -0.3989157 -0.036907297 0.01870082
000210 04 0b 5e 3d 8f 76 41 be 2b 9c 9e be db dc f7 bc
       0.054209724 -0.18892883 -0.30978522 -0.03025668
000220 5e fb cf 3a 00 46 9c 3d ee b2 04 3e 3b 32 9f bd
       0.001586776 0.07630539 0.12958881 -0.077732526
000230 0a fd cf 3b 45 0c f5 bd f9 f3 38 3d 13 01 cd 3d
       0.0063473033 -0.11965231 0.045154545 0.100099705
000240 6f cb 33 bd 73 1c 21 be 26 42 1c bd 1b 0e 6e bc
       -0.04389518 -0.15733509 -0.03814902 -0.01452973
000250 59 65 87 be 0a 3c 92 be b1 bc f5 bc 1c 2c df bc
       -0.2644451 -0.2856143 -0.029997202 -0.027242713
000260 70 9a 39 bd 79 02 66 be ca 23 7f be da 60 50 be
       -0.0453133 -0.2246188 -0.24915996 -0.20349446
000270 3f 5d 88 bc 2e 2b 99 bd 6c d4 7e be d0 70 ad be
       -0.016646026 -0.07478939 -0.2488572 -0.33875132
000280 7c 0a 15 bd ab fa 4a 3e 44 0a 79 3e 76 96 d6 3e
       -0.03638695 0.19822185 0.24320322 0.41911668
000290 8c c4 4a 3e d5 96 0b 3e d6 cb 6a 3c 9a 94 9f 3d
       0.19801539 0.13631757 0.014330825 0.077920154
0002a0 11 42 bf 3d 92 06 e2 3e 69 fd 75 3e 0b 36 af 3d
       0.09338773 0.44145638 0.2402245 0.0855523
0002b0 8a 14 34 3e 1f 2f 58 3e be 6b 40 3d 45 72 0b 3e
       0.1758596 0.21111725 0.04697775 0.13617809
0002c0 71 8e a0 3d 24 12 35 3e 62 f7 e8 3b cf 47 1a 3d
       0.078396685 0.17682701 0.0071095685 0.03766614
0002d0 f6 23 8b bc a5 eb 27 3e 9e 62 ea 3b 5a 7d e6 bd
       -0.016984921 0.16398485 0.0071528694 -0.11254378
0002e0 cb a3 9b bd e9 20 b1 3d 3e d1 36 3e e5 31 cf 3d
       -0.075996004 0.08648855 0.17853257 0.101169385
0002f0 b6 f3 32 be 6c 13 53 be 8f 02 17 3e 82 53 32 3c
       -0.17475781 -0.20612878 0.1474707 0.010884168
000300 46 5c 2b bd b4 b0 31 be 59 d4 9a be d1 63 5a 3d
       -0.041836046 -0.17352563 -0.30240133 0.05331785
000310 b3 e3 57 be 6e 2d c3 be ae b9 93 bd 78 c3 e3 3d
       -0.21082954 -0.38120598 -0.0721315 0.11121267
000320 18 5f a1 bd 65 9a e9 be 92 6a 2b bf 5f 48 4a bf
       -0.07879466 -0.45625606 -0.6695949 -0.7901668
000330 29 f4 db be 19 bf 70 3e e5 ca 2c 3d f3 da 01 be
       -0.42959717 0.23510398 0.042185683 -0.12681179
000340 43 52 07 bf bf 99 00 bf b2 12 cd 3d 04 01 a3 3d
       -0.52859896 -0.502346 0.100133315 0.07959178
000350 dc 12 0d 3f 23 e9 81 3e 70 09 b6 bd 8b 1b ac 3c
       0.551069 0.25373182 -0.08888519 0.021009227
000360 03 ea 89 3d ea 37 d3 3e d1 b7 9f 3e ab a7 32 3e
       0.06734087 0.41253597 0.31194928 0.17446773
000370 90 e6 0d be 08 62 06 be 61 69 21 3e 30 c4 e3 3d
       -0.13857484 -0.13123333 0.15762855 0.11121404
000380 af 43 5c be 14 71 63 3e e9 ab 65 bc a1 77 6b be
       -0.21510194 0.22211105 -0.014018037 -0.22994854
000390 a7 73 c8 be a9 6c fa be 13 b6 e8 3d 16 cd 0b 3d
       -0.39150736 -0.48911026 0.11362853 0.034131132
0003a0 27 55 1d 3e 1c 41 cb be 0a 92 03 bf 73 c9 d5 3c
       0.15364514 -0.39698112 -0.5139471 0.026097035
0003b0 0e 5d ac bc 24 52 53 3e 86 bb 7a 3e f9 a9 dc 3c
       -0.021040466 0.20636803 0.24485597 0.026936518
0003c0 fc eb 27 3e 4f 29 24 bc ff 9d f1 3d 7e 55 59 3e
       0.16398615 -0.010019614 0.117977135 0.21224019
0003d0 e8 89 94 3d 83 fe bc bd ae 57 0a bc ac 20 89 bd
       0.07252866 -0.09228232 -0.008443756 -0.06695685
0003e0 67 71 12 bd 97 28 8e bc 99 e7 a7 3d 8d 92 20 3d
       -0.03575268 -0.01735334 0.081984706 0.03920226
0003f0 ce 7d 48 bd 52 de 21 ba da 19 51 be 4b 24 e5 3d
       -0.0489481 -0.0006174791 -0.20420018 0.11188563

fc1.bias f4 [120]
000000 06 dc 64 3c d1 16 5e bd 93 f3 3a 3c 94 c8 07 3e
       0.013968473 -0.05422098 0.011410612 0.13260108
000010 dd f3 3b 3d dd 08 89 3d 6a 50 04 3e 65 ff f4 3b
       0.045886863 0.06691144 0.129213 0.0074767345
000020 45 79 97 3d f0 7b c0 3d 91 b1 0a 3b aa 40 05 3d
       0.07396177 0.09398639 0.0021162967 0.03253237
000030 2c 30 0e bd ae 8c 5a 3a 70 92 84 3c 60 77 b9 3d
       -0.03471391 0.0008337003 0.016183108 0.09055972
000040 88 36 3e 3d 5e 7a b2 3d 84 85 a0 bd 31 a6 ff 3b
       0.046438724 0.08714746 -0.07837966 0.007801794
000050 a8 0e fa 3d ef 53 9e bb 6d 9d 29 3a de 07 3f 3d
       0.12209827 -0.004831783 0.00064702966 0.046638362
000060 b1 01 9b 3d 81 de bd bc 2e 63 9c bb ab 91 0c 3e
       0.07568682 -0.023177387 -0.0047725653 0.13727443
000070 55 0d b6 3d 78 63 76 3c 6b 0e fe 3d 55 da f3 3d
       0.08889262 0.015038364 0.12405094 0.11906878
000080 89 b2 43 3e b1 f5 10 3d dd 46 16 3d aa 4b 77 3d
       0.19111075 0.03539056 0.036688674 0.060374893
000090 9d 40 a3 3d 54 d7 49 3d 0c 48 a0 3d dd a6 df 3d
       0.079713084 0.04927762 0.07826242 0.109204985
0000a0 3e 75 48 3c a2 80 4c 3d ba 08 b1 bb dd 2e 4b 3c
       0.012234984 0.04992736 -0.0054026516 0.01240131
0000b0 66 e3 73 bc d2 46 f3 3b 2c e1 ad bc 09 7f b2 bd
       -0.014885759 0.007424214 -0.021225534 -0.08715636
0000c0 cf 71 5b 3d c2 79 81 3d 79 4e eb 3d 61 37 15 3d
       0.053575333 0.063220516 0.11489577 0.036429767
0000d0 5f 36 61 3c b8 51 c6 3d d8 95 92 3c 93 e5 65 bd
       0.013745873 0.09683555 0.017893717 -0.056127142
0000e0 ac e8 17 3d 77 d6 c2 3c c1 48 0c 3d d9 df 5f 3c
       0.037087128 0.023783905 0.03424907 0.013664209
0000f0 85 1d 13 3d 42 b0 6b 3d 00 b1 8d bd 03 16 fe bc
       0.035916824 0.05754114 -0.06918526 -0.031016355
000100 0b 00 a6 3d 35 76 31 3d c2 34 48 3d f8 8b 37 3d
       0.08105477 0.04332562 0.04887844 0.04481122
000110 06 0d ad bc a6 a4 fb 3a c6 ca 30 3d 25 74 36 3e
       -0.021124374 0.0019198849 0.04316213 0.17817743
000120 61 17 2e 3d 6e 16 77 3d 69 c2 d0 3c d7 18 db 3d
       0.042502765 0.060324125 0.025483327 0.10698097
000130 3d 47 39 3d 97 9c fc 3d 7c f0 2a 3d 5e a5 49 bc
       0.045233954 0.12334555 0.04173325 -0.012307493
000140 5d d8 5f 3b fa f7 72 ba 32 f3 d6 bc aa 37 76 3c
       0.0034156062 -0.0009268519 -0.026239011 0.01502792
000150 6f f3 0c bd cf db f5 b8 aa d7 a4 3d d7 e1 99 3d
       -0.034411844 -0.00011723453 0.08048947 0.07513779
000160 a4 35 1e bd c8 b3 d3 3d 08 1b d7 3b e5 07 72 3d
       -0.038625374 0.10337025 0.0065645017 0.05908956
000170 a8 32 a0 3d aa 3b 07 3d 7f 14 fe 3c 1b 7a 1e 3d
       0.07822162 0.033015884 0.031015633 0.038690668
000180 f9 1f 00 3d 92 c7 72 3d 9b 69 93 bc 00 e6 49 3d
       0.03128049 0.059272356 -0.017994693 0.04929161
000190 66 21 df 3c 44 7b 06 3c 61 25 2f bd 1a c6 5b 3e
       0.027237605 0.0082081 -0.042760257 0.21462288
0001a0 48 e8 fa 3d 72 8d 13 bd 63 a3 bb 3c 1b c9 07 ba
       0.122513354 -0.036023565 0.022905057 -0.00051798084
0001b0 09 3e fd 3c 46 40 30 3d 8a f5 d3 3d fc b9 85 bb
       0.03091337 0.043030046 0.10349567 -0.004081009
0001c0 06 71 fd bb 38 9a ee 3b db 63 53 bd 96 3f 88 3d
       -0.0077344207 0.007281568 -0.0516089 0.06652753
0001d0 9a 08 3a 3d 92 d5 06 bc 03 0a 2b bd 44 20 4a 3d
       0.04541836 -0.00822963 -0.041757595 0.049347177

fc2.weight f4 [84, 120]
000000 5c 63 b3 3e 89 c3 4d 3e f8 35 2f 3d 35 f9 5a bd
       0.35036743 0.20094122 0.042776078 -0.05346032
000010 72 6a fe 3e b9 70 c1 3e 20 69 9f bc d3 fa b4 3e
       0.49690586 0.37781313 -0.019459307 0.35347614
000020 04 80 63 3e b1 3f 35 be dc 2d 55 3d 1b a4 a2 bd
       0.22216803 -0.17700078 0.052045688 -0.07941457
000030 91 37 ef bd 99 c4 1c be 3d 2e 6c bd 73 6c 47 be
       -0.1168052 -0.15309371 -0.057661284 -0.19474964
000040 15 c6 ef 3e 2f cb fd 3e 71 8c 8a 3e 0f 16 d4 be
       0.46830812 0.4956908 0.27060273 -0.4142308
000050 3f ad 5a 3e c4 40 8e be aa f3 49 be 0a 5d 00 3f
       0.2135515 -0.27783787 -0.19721857 0.50141966
000060 66 4b 05 3f 9d 88 06 be 67 58 e0 3d 45 f2 99 be
       0.52068174 -0.13138051 0.109543614 -0.3006765
000070 1d 26 76 3e 9e 4f 84 3d 92 87 88 be 64 b0 13 3e
       0.24037977 0.06460498 -0.26665932 0.14422756
000080 a9 ff 71 be 98 7c fd 3b 5b 5f 88 be 1f e0 cf 3e
       -0.23632683 0.0077358 -0.2663525 0.40600678
000090 5f 36 7b 3e c0 ce 68 3d 17 ef df be 71 2a c5 3e
       0.2453246 0.056837797 -0.437371 0.38508943
0000a0 0f 39 85 be 46 cc 94 be 10 94 b2 3e 6e c9 2e be
       -0.26020095 -0.29062098 0.34878588 -0.17069027
0000b0 c2 aa 91 3d ba af f4 bc f9 23 1e 3e 68 77 d1 be
       0.071126476 -0.02986895 0.1544341 -0.40911412
0000c0 7d 9b 03 3e a3 cb c3 3e 01 a8 be 3e 02 1c aa bd
       0.12852283 0.382413 0.37237552 -0.08306123
0000d0 24 04 f6 be 7e f7 ee 3a c7 3d bf bb 2a 3b 23 be
       -0.48050034 0.0018231717 -0.005836222 -0.15940538
0000e0 72 6b 3c 3d 97 d1 8b 3d e2 ff cb be 3f 8e be be
       0.046000905 0.068270855 -0.3984366 -0.372179
0000f0 18 eb 6b be 23 45 cd 3e 1f ee cb bb 86 5d 58 3e
       -0.230389 0.4009181 -0.0062234546 0.21129426
000100 0b 0a a8 3d c5 48 b1 3e 1a ce 75 3c 8f 92 cf bd
       0.082050405 0.3462583 0.015002752 -0.10135376
000110 e3 17 62 3f 6f 03 e9 be c8 c6 8e 3e cf fb 99 be
       0.883177 -0.45510432 0.27886033 -0.30074927
000120 92 87 91 be 0a 12 be be 27 7e 65 3f 78 55 b0 be
       -0.28423744 -0.37123138 0.8964562 -0.34440207
000130 14 ba a9 be 94 3a 10 be f0 4f 58 be 92 59 9d be
       -0.3314978 -0.14084846 -0.21124244 -0.307324
000140 78 94 05 be 4e 2a b3 3d 67 d1 a8 3e aa 6a b0 be
       -0.13044918 0.08748303 0.3297226 -0.34456378
000150 39 3f f3 be d7 30 12 bf 18 34 60 bf 3a 45 db bd
       -0.47509173 -0.57105774 -0.8757949 -0.10706563
000160 d0 74 da b7 7b d0 ed bd 72 8c 70 be ab 7a ad 3e
       -2.604202e-05 -0.1161203 -0.23491076 0.3388265
000170 3a 7b 48 be 1c 09 f0 3e c6 e8 c8 3e c3 1a 7b 3e
       -0.19578257 0.4688195 0.39240092 0.24521928
000180 9a aa 32 be b8 7a 65 3e 82 db 36 be 31 5e 0b 3d
       -0.17447892 0.22410095 -0.17857173 0.034025375
000190 72 5d 93 3e 35 c3 ee bd ca d5 07 bf 38 ed c8 be
       0.2878223 -0.116583265 -0.5306059 -0.39243484
0001a0 e8 1f 16 bf 46 7d 21 be 0c 8c 0b be c3 16 ba 3e
       -0.58642435 -0.15770444 -0.13627642 0.3634549
0001b0 05 d6 b9 3d 27 f8 c7 3d b9 c0 39 3c 75 14 b1 be
       0.09074024 0.09764128 0.011337453 -0.3458592
0001c0 5e 09 5b be fb dd e5 3d d5 f5 3d bf b3 c6 8e 3d
       -0.21390292 0.1122398 -0.74203235 0.069714926
0001d0 6a 96 f4 3e dc 13 64 be 3f 95 a6 3d f0 71 62 3e
       0.47771007 -0.22273201 0.08133935 0.22113776
0001e0 d1 11 51 be 87 f6 e2 3c 6a 35 55 be 2e e5 34 3d
       -0.20416953 0.027705444 -0.20821157 0.044163875
0001f0 fd 84 94 be 00 b3 40 be 62 14 10 bf 1d db cc be
       -0.29007712 -0.18818283 -0.562811 -0.4001092
000200 f2 56 94 be 0c 65 9e bd 44 a9 16 be cf 95 20 be
       -0.28972584 -0.07734117 -0.14713007 -0.15682147
000210 65 92 cd 3d 9e 80 1b bf 19 da ac 3d cd e1 61 3e
       0.10037688 -0.6074313 0.08440036 0.22058792
000220 df 58 3e bf b4 4e 8c be 21 c6 68 3d 23 d7 86 3e
       -0.74354357 -0.27403796 0.056829575 0.2633601
000230 40 23 11 bf b8 99 15 3e d0 1d 32 3e 75 07 21 bf
       -0.5669441 0.1460942 0.17394185 -0.62902004
000240 f9 e3 1f bf 1e 34 fe bd 19 3f b1 bd 39 77 21 bf
       -0.62457234 -0.12412284 -0.08654613 -0.63072544
000250 98 23 fd be 3b 22 79 be a8 30 f3 bd 89 26 42 be
       -0.49441218 -0.24329464 -0.11874515 -0.18960012
000260 cb 4f 8f be e0 26 60 3e 13 7d ed bd 7f cb 72 be
       -0.27990565 0.2188983 -0.11596122 -0.2371044
000270 9c 78 59 3e b1 c2 90 be 95 ec 92 3d 39 fc 5b be
       0.21237415 -0.28273538 0.07174031 -0.21482934
000280 6e 10 53 3e 4d 20 e5 3d 96 8e 63 be c2 64 d0 bd
       0.20611736 0.111878015 -0.22222361 -0.10175468
000290 10 8f 84 bd 32 f3 a0 bd ca 47 ae 3e 8a c0 50 3e
       -0.064725995 -0.07858886 0.34039146 0.20385948
0002a0 e2 80 97 be 86 e8 f4 3c a8 50 aa be 02 2c 8f bd
       -0.29590517 0.029896032 -0.3326466 -0.06990816
0002b0 1b 4e 88 3e b4 e7 40 3d 8c 83 ca bc 8e 54 72 bd
       0.2662209 0.04709597 -0.02472093 -0.05916267
0002c0 66 13 0d bd d8 48 4d 3e d0 3c 90 3e 7d c7 d1 bc
       -0.034442328 0.20047319 0.28171396 -0.025607819
0002d0 fa 3b 80 3e 85 4f bc be 87 ef 58 3e 5a 18 9b 3d
       0.25045758 -0.3677942 0.21185122 0.07573004
0002e0 dd c5 52 be b0 f9 f7 be 5a 66 83 bc bd e7 bc 3e
       -0.20583291 -0.48432684 -0.016040016 0.36895552
0002f0 9c 63 dd be 3c 2e e1 3e c5 bc c9 be 86 35 60 bf
       -0.43240058 0.43980587 -0.39401832 -0.8758167
000300 e9 31 c3 3e 08 35 c8 3e d2 df 97 be f1 17 15 be
       0.38124016 0.3910296 -0.2966295 -0.14559914
000310 63 b2 a7 3e 8e 3a 35 3e f4 30 5b 3e df de b1 3e
       0.32753286 0.17698118 0.21405393 0.3474035
000320 3c 62 d6 3d 76 de 91 bd 51 ed 1e be 78 40 3e bf
       0.104679555 -0.07122509 -0.15520217 -0.7431712
000330 42 da c0 3e fe f0 55 3e 42 f5 80 3f 7a 17 21 3e
       0.37666517 0.20892712 1.0074847 0.15731612
000340 d7 be 91 3c b2 f1 e8 be ae 25 de ba 80 62 1d bf
       0.017791195 -0.454969 -0.0016948485 -0.61478424
000350 36 35 a4 bd 44 3f b9 be 2a 0c 20 be a0 27 93 be
       -0.08017962 -0.3618108 -0.1562964 -0.2874117
000360 23 e3 f2 3d 19 40 cc bd 99 7d 9b bd 19 93 87 3e
       0.11859729 -0.09973163 -0.07592315 0.26479414
000370 49 ca 7a be de 0a 60 bd 62 c0 53 3e c0 de 87 be
       -0.24491228 -0.054697864 0.20678857 -0.26537132
000380 f9 8e ec 3e 21 5a 59 3e e8 fa 80 3c ae 09 9e 3d
       0.4620283 0.21225788 0.015744641 0.0771669
000390 57 30 44 3e aa 6d 3e 3c 71 e5 5c 3e 92 0c 69 3e
       0.19159065 0.011622826 0.215719 0.22758701
0003a0 26 42 08 bd 77 55 9d be 9c d4 4a 3f 58 cb c2 3c
       -0.03326621 -0.30729267 0.79230666 0.023778602
0003b0 89 88 32 bf 19 c3 8a 3d 2d eb 04 bf 80 28 3a 3e
       -0.69739586 0.06775493 -0.5192135 0.18179512
0003c0 91 63 75 3d 84 fb 9b be f9 13 ac bd 0f b7 06 3e
       0.059909407 -0.3046533 -0.08402247 0.13155769
0003d0 96 6c 75 3e 3a 28 16 be b5 8a b6 3e e8 58 5d 3e
       0.23967203 -0.14663783 0.356527 0.21615946
0003e0 c4 a6 c3 3e 6b 03 2a be 6e 42 f2 3d 9b 39 3d 3e
       0.3821317 -0.16602866 0.11829077 0.18479006
0003f0 e2 29 0d be ab 6f 1d 3e 63 57 59 be 15 b2 06 be
       -0.13785508 0.15374629 -0.21224742 -0.1315387

fc2.bias f4 [84]
000000 c9 cb 97 3c 96 1a 46 bb 77 a1 09 bd 6e 2b a0 ba
       0.01852979 -0.0030228249 -0.03360125 -0.0012219974
000010 11 bc 9a 3d 6a 92 0f be dd 3e d4 3d 2f e4 24 3e
       0.07555402 -0.14020696 0.10363553 0.1610267
000020 20 94 5b bd 8c b7 51 3d 4f 39 3c 3e 50 6f 5f 3d
       -0.05360806 0.051200435 0.18381236 0.054549515
000030 de 89 17 3e 33 45 7c bd ec e8 92 3c 19 02 ce bd
       0.14798686 -0.06158943 0.017933331 -0.10058994
000040 c1 ed d2 bd 2a 95 d5 3d 93 b1 4b 3d 5f 0b fb bc
       -0.10299254 0.104288414 0.049729895 -0.03064507
000050 d3 e7 80 bd 0c 29 2f 3e 5c d4 e3 bd 19 90 11 be
       -0.06294217 0.17105502 -0.11124489 -0.14215125
000060 95 95 8e bd 70 3b 74 3d 63 3e 8a bd 2f 6f ed 3d
       -0.06962124 0.059626997 -0.067501806 0.11593472
000070 0a 18 7e bd 6d d1 c3 bb c4 1b 95 3d 4f 7b 0e bd
       -0.062034644 -0.0059758932 0.072806865 -0.034785565
000080 70 7d de bc 54 20 d7 bc f5 ff 06 3e 6b b4 4d 3d
       -0.027159423 -0.026260532 0.13183577 0.050220888
000090 3a b9 48 3c 6a 1e c1 bd a5 a3 8a bd a6 1b 8a 3d
       0.012251193 -0.09429629 -0.06769494 0.06743555
0000a0 8b 0e 32 be ad 6f a2 3d 01 b5 50 bd 90 ac 52 bb
       -0.1738836 0.07931457 -0.05095387 -0.0032146312
0000b0 98 e4 52 3d 18 64 af bd ca 76 f5 3d 04 10 7a 3d
       0.051487535 -0.08564013 0.11985548 0.06105043
0000c0 cd 5f 38 3e 13 f9 59 be 5e 47 39 3e bb 78 3a bd
       0.18005295 -0.2128642 0.1809363 -0.045525294
0000d0 47 98 25 3e 46 52 3f bc 52 c3 22 3e 43 ab 82 bd
       0.1617137 -0.01167733 0.15894821 -0.06380322
0000e0 25 fa 04 bd 3e 34 d1 b9 83 df cb 3c 21 74 99 3d
       -0.03246512 -0.0003990251 0.024886852 0.07492853
0000f0 ae 62 69 bc 85 72 73 3c 2d 9a d1 3d 77 9c f1 3d
       -0.0142447185 0.014858847 0.10234485 0.117974214
000100 23 e9 5f bd a4 b0 42 3e 90 b4 5e 3e de 71 7e 3c
       -0.054665696 0.19012696 0.21748567 0.015530078
000110 95 82 58 bd 4b d7 e9 3c e1 53 fd 3c 3d 1a 17 3e
       -0.052858908 0.028545042 0.030923786 0.14756103
000120 d6 72 ee bd b9 08 cf 3d 7f 80 62 bc d1 b3 f0 bd
       -0.11642997 0.101090856 -0.013824581 -0.11753047
000130 84 34 d4 bd 03 87 7f 3d 57 49 37 3e 3d 81 c9 bd
       -0.10361579 0.062384617 0.1789907 -0.09839103
000140 cb 66 39 bd 72 8c 1c bd 09 a1 f5 3d a4 cb a6 3d
       -0.045264047 -0.038219877 0.11993606 0.0814431

fc3.weight f4 [10, 84]
000000 56 a1 a4 be e8 28 6f 3e e0 b9 d8 be 8e 48 49 3e
       -0.3215434 0.23355448 -0.4232931 0.19656584
000010 e3 7b e9 be 8c 54 a2 be 3f ba bd 3e a0 39 7c 3e
       -0.4560233 -0.3170513 0.37056157 0.24631357
000020 d0 8b 18 bf 72 7f 86 3e c0 c6 ed 3e 55 a5 f5 3e
       -0.59588337 0.26269108 0.46440697 0.479777
000030 5d bd 57 3c f5 2a 0b bf 9f f2 5e be 68 17 db be
       0.013167706 -0.5436242 -0.2177224 -0.42791295
000040 8d 3c b8 3d e0 f6 00 3f f7 04 ee 3e 1b 6a 09 bf
       0.08995924 0.503767 0.46488163 -0.5367753
000050 40 0a 89 3e e0 1c f6 3e 33 66 02 bf 93 35 af be
       0.26765633 0.48068905 -0.50937194 -0.3422056
000060 37 d9 8d be b2 05 de be c6 d0 c1 be a9 87 c3 3e
       -0.27704784 -0.4336372 -0.37854594 0.38189438
000070 70 cc 99 be 8a 80 c2 be ca d6 10 bf 0b 41 93 be
       -0.30038786 -0.37988693 -0.5657774 -0.2876056
000080 e8 c0 9f 3d 90 5e 72 3e 80 91 d1 be 8a be 01 bd
       0.07800466 0.23668885 -0.4093132 -0.031675853
000090 76 dd a2 3e 1d 45 11 bf 29 43 2a 3d bb 9f 59 3e
       0.31809586 -0.56746083 0.041567955 0.21252339
0000a0 44 f3 76 3e c9 d1 9b be 58 25 e4 be 58 b7 8b 3e
       0.24116236 -0.3043349 -0.4455974 0.27288318
0000b0 70 ab 8b 3e 73 28 d4 3e 46 37 92 3c 87 29 ba 3d
       0.27279234 0.4143711 0.017848622 0.09089952
0000c0 db ee 6f 3e f2 3e 02 bf e7 ce bd 3e 90 f4 e6 be
       0.2343096 -0.50877297 0.37071916 -0.4510846
0000d0 bf e5 ea 3e 4c 35 e2 3d 3b 43 03 3f 63 57 d5 be
       0.45878407 0.11045322 0.5127446 -0.41668233
0000e0 9a 42 8b 3e ec de 4d 3e 96 59 bf 3e 6b 95 08 3f
       0.2719925 0.20104569 0.37373036 0.53352994
0000f0 cc eb 5a 3e 6e a0 83 3e a8 cf a4 3e bf ba e9 be
       0.21379012 0.25708336 0.3218968 -0.45650288
000100 6f f6 44 bf 8f a1 a7 3e 5a 5b 12 3f ac 1a d8 be
       -0.7693853 0.32740447 0.5717064 -0.4220785
000110 7a 44 f2 be e5 9e d7 be b9 1c c7 3e 32 27 6e 3e
       -0.47317868 -0.42113414 0.388891 0.2325714
000120 6e 83 40 3e d3 53 e0 bd 1e 60 08 bf 2a 21 b8 bd
       0.18800136 -0.10953488 -0.53271663 -0.089907005
000130 dd f6 82 be 92 11 83 3e 17 58 cc be 31 cb 20 bf
       -0.25578967 0.25599343 -0.39910957 -0.62810045
000140 2f 36 a9 be 3a 0e b5 be 9f 40 db be 70 eb f0 3e
       -0.3304915 -0.35362417 -0.4282274 0.47054625
000150 9b 8a 08 be 7f 8b 5b be 77 46 b3 3e 9f 05 86 3e
       -0.13334124 -0.21439932 0.35014698 0.26176164
000160 a0 7e 15 bf 79 03 e7 3e 9d 6e e1 be e3 5a da be
       -0.5839634 0.45119837 -0.44029704 -0.42647466
000170 5c a7 be 3e ce de ee be 48 be f9 be 24 4b c3 bd
       0.3723706 -0.4665436 -0.48777986 -0.09535816
000180 f3 5d c6 be e8 9b c4 3e 73 13 84 3e e0 e0 ec 3e
       -0.38743553 0.38400197 0.2579609 0.46265316
000190 5b 96 ae 3e d0 fe e5 be e1 0b 94 be 34 c5 b0 be
       0.34099087 -0.4492097 -0.28915313 -0.34525454
0001a0 89 7e 86 3e 15 5d e8 be a6 17 af 3e b2 2a 2f bc
       0.26268414 -0.45383516 0.3419773 -0.010691332
0001b0 11 62 a8 3e 76 64 b4 be 17 26 ae 3e 2a cd bb be
       0.3288732 -0.35232896 0.34013435 -0.36679965
0001c0 e8 af b5 3e a2 11 a9 3e 8c d7 22 bf 0e d0 2c 3d
       0.35485768 0.33021265 -0.6361015 0.042190604
0001d0 33 eb c0 be 11 4b f0 3e 68 97 02 bf 80 f5 11 bf
       -0.37679443 0.4693227 -0.5101228 -0.5701523
0001e0 a4 28 aa be f8 15 9d 3e b5 db 9a 3e 0f 7b d7 be
       -0.3323413 0.30680823 0.30245748 -0.42086074
0001f0 b1 59 db 3e b0 2a 58 be c1 a6 8c 3e 2e 95 44 be
       0.42841867 -0.21110034 0.27470973 -0.19197533
000200 ba 0e 13 bf 0f e2 1e 3e db 8a 0d bf 87 ae d5 3e
       -0.57444346 0.15515922 -0.5529 0.41734716
000210 54 5f fc be d9 5e b1 3e 11 26 e0 be 2e a2 fb 3c
       -0.4929148 0.34642676 -0.43779042 0.030716982
000220 71 bd df be ef 2f 91 be 91 36 79 be 98 ee 94 3e
       -0.4369922 -0.28356883 -0.24337222 0.29088283
000230 85 9a b1 be 15 9a b2 3e 26 17 c1 be b5 40 aa be
       -0.34688202 0.3488318 -0.37712973 -0.33252493
000240 22 b4 dc 3e 93 85 91 be 4f 9a b0 be 66 51 13 bf
       0.4310618 -0.28422222 -0.34492728 -0.5754608
000250 d4 5d a8 be 2d 3d 12 bf ac 29 d7 be f8 71 ba 3e
       -0.32884085 -0.57124597 -0.4202398 0.36415076
000260 52 d5 a3 3e 27 ca ec 3e df 94 98 be ee 40 9a be
       0.31998688 0.4624798 -0.2980108 -0.30127662
000270 42 86 d8 3e 23 65 94 3e fa 3f 22 bf 47 b4 4c 3e
       0.4228993 0.2898341 -0.6337887 0.19990645
000280 ef bf c1 3e 25 e8 f1 3d 6e 76 93 be 81 c2 87 3e
       0.37841746 0.11811856 -0.28801292 0.26515582
000290 d1 e1 06 3f 2f b1 b1 3e 98 be 00 bf 23 08 c1 be
       0.5268832 0.34705493 -0.50290823 -0.3770152
0002a0 63 84 55 be ea cd 0f 3e 89 d9 e8 be 4a e8 2c 3e
       -0.20851283 0.14043394 -0.45478466 0.16885486
0002b0 8d 3f c8 3d df 1c 5d 3d dd ee e4 be 07 53 8d 3e
       0.09777746 0.05398261 -0.44713488 0.27602407
0002c0 ed ef 27 bf ee 7e ca 3e a8 48 11 3f c9 fe 18 bf
       -0.6560047 0.39549965 0.5675149 -0.5976377
0002d0 58 38 8d 3e 81 2e 9b 3e 92 e7 a9 3e 92 08 fa be
       0.2758205 0.30308917 0.33184487 -0.48834664
0002e0 d9 98 d7 bd 97 21 52 be f9 e7 29 3f 3b c5 aa be
       -0.105272 -0.20520626 0.6636959 -0.333536
0002f0 72 7a 9e 3e d5 51 0b bf 31 81 cd 3e 2d f1 b6 3e
       0.30952793 -0.5442174 0.40137628 0.35730878
000300 27 a8 d2 3e 36 d0 45 be 3f 8f d7 3e d4 8f 17 3f
       0.41143915 -0.19317707 0.42101476 0.5920384
000310 5c 64 ae 3e 35 27 e5 bc e8 1a ec 3e f2 a1 a0 be
       0.34060943 -0.027972797 0.46114278 -0.31373554
000320 31 49 f3 3d 7a 9e ca bd ad f0 07 bf 2c 7b b7 be
       0.118791945 -0.09893508 -0.5310162 -0.3583616
000330 c6 74 d1 3e d5 01 20 bf 59 b5 06 bf 78 c4 a1 3e
       0.40909404 -0.62502795 -0.52620465 0.31595206
000340 f9 fe 95 3e e4 40 24 3f c9 57 ab 3e e2 b5 98 be
       0.2929609 0.64161515 0.33465412 -0.29826266
000350 ea f2 f6 3e 80 fd c6 3e c6 1a ae 3c 9c 3c 12 bf
       0.48232204 0.3886528 0.021253001 -0.5712373
000360 83 78 1b 3e 8f b7 18 bf b2 bb 78 3c e0 0e 08 3f
       0.1518269 -0.5965509 0.015181469 0.531477
000370 35 3f b9 be 65 f6 a7 3d 2f 56 f3 3e a4 8e 4a 3e
       -0.36181036 0.08201293 0.4752669 0.19780976
000380 1f 9f 80 be f5 e3 81 3e ac 0c 3e bf 35 a1 ff 3e
       -0.251214 0.2536923 -0.74238086 0.4992768
000390 b5 b9 ef 3d 77 de 2b bf e0 33 ad be 98 d4 c4 be
       0.11705343 -0.6713633 -0.3382864 -0.38443446
0003a0 34 9e 80 3e a0 5c 2e bf 1a 40 03 bf 4a 3f dc be
       0.251207 -0.68110085 -0.51269686 -0.43017036
0003b0 b2 69 87 be 92 41 9d be 5f 78 41 bf 8f f5 f9 bc
       -0.26447827 -0.3071409 -0.75574297 -0.0305126
0003c0 f9 30 e9 be ce d4 40 3d e1 d7 cb be 47 59 20 bf
       -0.45545176 0.047077946 -0.3981314 -0.62636226
0003d0 3e c1 be 3e 6e be 9a 3e 81 d6 c7 3e 87 5b ea be
       0.37256807 0.3022341 0.3903084 -0.45772955
0003e0 de 5a db be 70 8c 0d be 24 c0 e9 bd 60 32 79 3e
       -0.42842764 -0.13823104 -0.11413601 0.24335623
0003f0 05 64 e8 be 0f ca 0e 3f 7c de e8 3d 1f fe 7d 3e
       -0.4538881 0.55777067 0.113705605 0.24803971

fc3.bias f4 [10]
000000 a3 3b 69 bd 14 d2 03 3d 6d 62 37 bc cc 04 ea 3d
       -0.05694164 0.032182768 -0.0111929 0.11426696
000010 f4 36 b1 3c ae 6f bb 3d 2d 84 32 bd 44 33 fe 3c
       0.021632649 0.091521606 -0.043583084 0.031030305
000020 25 62 20 bd 67 e3 a8 3d
       -0.039156098 0.082464986
